tflite model(for edge impulse).tflite (tflite, 13936 bytes, 6 tensors)

sequential/conv1d/BiasAdd/ReadVariableOp f4 [32]
000000 9d e8 fd 3e 15 25 72 3e 7e fc 5e 3e 0a 31 18 3f
       0.49591532 0.23646958 0.21776006 0.5944983
000010 72 60 a4 3e 8a 50 92 3d a9 23 2e bc ae 74 00 bf
       0.32104832 0.07144268 -0.010628619 -0.5017804
000020 61 a6 5a 3e b3 82 40 3f af a3 aa bd dd f3 c9 3d
       0.21352531 0.7519943 -0.083320014 0.09860966
000030 22 2f 8b 3d 7c f4 35 3f c6 81 ad 3d 35 06 c9 bd
       0.06796099 0.7107618 0.08472018 -0.09815637
000040 d2 d8 a3 bd 7a 80 29 be 7d e1 8d 3e 4a 37 5e 3e
       -0.080003396 -0.16552916 0.27711096 0.21700779
000050 66 c8 27 3d df a1 8f 3e ac 13 fe 3e 58 4a 14 3e
       0.0409626 0.28053185 0.49624383 0.14481485
000060 4b 58 ad 3e f1 2b 34 3d 38 73 14 3f cf c6 fe bc
       0.33856425 0.04398722 0.5798831 -0.031100659
000070 e0 cd 95 be fb 3d 46 be a5 28 2e be 26 ef 98 3e
       -0.29258633 -0.19359581 -0.17007692 0.29869956

sequential/conv1d/Conv1D f4 [32, 1, 3, 1]
000000 9a b8 00 bf 33 55 cb 3d f4 34 f6 be 09 20 91 3e
       -0.5028168 0.0992836 -0.48087275 0.28344753
000010 bb 24 04 3e 42 d5 ae be af fc 38 be de 01 5d 3f
       0.12904637 -0.34147078 -0.18065141 0.86330974
000020 51 bb 84 be 8d 9d 24 3e ae eb aa be 8e 66 45 3e
       -0.2592416 0.16075726 -0.33382934 0.19277403
000030 84 af b9 3e ce 60 e3 3d 9c 27 a7 3e df 09 a8 3d
       0.3626672 0.111024484 0.32647407 0.08205008
000040 46 74 30 bf cf a2 a9 bd 11 8b d4 ba 03 50 8f be
       -0.6892742 -0.082830064 -0.0016215761 -0.27990732
000050 32 28 3c bf ea a0 f9 3e 78 e3 e4 3e 74 12 72 be
       -0.73498833 0.4875558 0.44704795 -0.23639852
000060 83 fd 05 be 85 0a 03 3f b9 59 ca bd 8e 70 73 3e
       -0.13084988 0.51187927 -0.098803945 0.23773405
000070 05 e2 77 3e ea d7 25 3d f8 0e ae 3d 7e 55 96 be
       0.24207313 0.040489115 0.08498949 -0.293621
000080 b0 10 0b bf 11 1e 9b bd 92 d2 10 bc a0 9e 87 3f
       -0.5432234 -0.07574094 -0.008839266 1.0595284
000090 b4 9e f8 be bf 04 19 3f a3 89 a0 bd 0f 29 1a be
       -0.4855858 0.59772867 -0.07838752 -0.15054725
0000a0 43 a1 01 bf 13 2f d1 3e 2a 2f da 3e 5d dc a5 3e
       -0.5063669 0.40856227 0.42614108 0.32394686
0000b0 23 b7 ac 3d 62 f0 a8 3d a0 8c 0b 3f 97 87 91 3e
       0.08433368 0.082489744 0.5451145 0.2842376
0000c0 28 46 86 3e 2f 20 5f be fd bc a7 bd 0d 04 8f bc
       0.262254 -0.21789621 -0.081903435 -0.017457986
0000d0 de 34 fc 3d 0b 4e 2c bf b8 0e 85 bd 82 16 23 bf
       0.12314771 -0.67306584 -0.06496948 -0.6370622
0000e0 7b ff 82 be bb 6d 85 3e 0b 4e 1f bf 9e bf 9a 3e
       -0.2558554 0.2606028 -0.6222846 0.30224317
0000f0 f7 20 39 3e ca ff 95 3c 55 33 52 3f 85 c6 9b bd
       0.18078981 0.018310446 0.82109576 -0.07606224
000100 14 a8 14 bf 6f 10 98 be f6 13 c2 3e 39 1a f3 3e
       -0.58068967 -0.29700038 0.37905854 0.47480944
000110 01 35 76 be 65 76 15 be 5d 66 86 3d 0f 75 c2 be
       -0.24043657 -0.14595945 0.06562493 -0.37979934
000120 98 b9 34 bf e8 02 a6 bd 6c af 68 be eb 7e 36 bf
       -0.70595694 -0.08106023 -0.22723168 -0.7128741
000130 b7 26 a7 bb a6 7b ee 3e 75 5d 1b bf 58 e4 95 3c
       -0.0051010507 0.4657871 -0.6068948 0.01829736
000140 13 d3 87 3e 6c 90 06 be 11 f2 ec be c3 8a 8d 3c
       0.26528224 -0.1314103 -0.46278432 0.01727808
000150 34 36 4c be 8f fc 89 3e d7 dd 07 bf 61 06 86 3e
       -0.19942552 0.269505 -0.53072876 0.26176742
000160 79 bc bc be 07 8e cf 3e 65 d9 bd bd e6 2a bc be
       -0.36862543 0.40538046 -0.0926998 -0.3675148
000170 1a f9 2f 3e 8a e1 2e be 89 58 27 bf 21 0e 39 be
       0.17184868 -0.17078224 -0.6536947 -0.18071796

sequential/dense/BiasAdd/ReadVariableOp f4 [64]
000000 1a 17 90 3e 29 9a 1e 3e 2e 64 19 bd 33 77 93 3d
       0.28142625 0.15488495 -0.037449054 0.0720047
000010 f6 40 0c be 57 cf 88 3e 58 fc 32 3e 4f 32 87 3e
       -0.13696656 0.26720688 0.17479074 0.2640557
000020 00 00 00 00 3c 1f 1b be 40 df 90 3e 65 45 1d bd
       0.0 -0.15148634 0.28295326 -0.038396258
000030 00 00 00 00 49 ce 8a be 56 b7 6a bd bf 1e 91 3e
       0.0 -0.27110508 -0.05730375 0.2834377
000040 ac 30 45 bc b8 cb 96 be 24 ac c6 bc 83 7a 34 3e
       -0.01203553 -0.294523 -0.024252005 0.1762486
000050 28 b1 57 3e e7 e1 43 3d 34 4f 80 3e 06 59 73 be
       0.21063673 0.04782286 0.25060427 -0.23764428
000060 69 d7 2d 3e 8f 0b e9 3e 44 91 f4 3e 56 10 2a 3e
       0.16976704 0.4551663 0.4776708 0.16607794
000070 3d 04 88 be 1a e7 fe 3d 9d 95 c9 3e 56 ec b4 be
       -0.26565734 0.12446423 0.39371958 -0.3533656
000080 23 5e d8 3d ae 53 97 3e 13 ac 55 3e 51 fc d5 3e
       0.1056483 0.2955603 0.20866422 0.41794065
000090 65 85 0d be a3 b0 d3 bd 54 5b 61 3e 0a f0 44 3e
       -0.13820417 -0.10336425 0.22007495 0.19232193
0000a0 c2 f5 9c 3b 8f 4f 65 3d a4 de 65 3e e4 b3 ae be
       0.004790039 0.055984076 0.22448212 -0.3412162
0000b0 0c 59 ce 3e 86 3e 62 3f 59 0c b6 3e 4d 7e aa 3c
       0.40302312 0.88376653 0.35556296 0.020812178
0000c0 2e 9f 88 3e b8 9b 3e 3e 4e 83 52 3e a1 0c 3b 3e
       0.26683944 0.1861409 0.20557901 0.18266536
0000d0 04 46 5b bd 5c fa 7c 3e 5e fc d8 3e 62 9a 91 bc
       -0.05353357 0.2470488 0.4238004 -0.01777381
0000e0 01 ca 84 3e 43 26 22 be c6 a5 1f bc 22 87 a5 3e
       0.25935367 -0.15834908 -0.009744113 0.3232966
0000f0 00 00 00 00 01 8c 2a be 1f b5 97 3d b1 57 84 be
       0.0 -0.1665497 0.07407593 -0.25848153

sequential/dense_1/BiasAdd/ReadVariableOp f4 [5]
000000 25 8c d7 3d 41 ad 89 bd 53 75 39 3d 76 1c 86 bd
       0.10524777 -0.06722499 0.045277905 -0.06548397
000010 3e 8f 17 bc
       -0.00925046

sequential/dense/MatMul f4 [64, 32]
000000 6b 04 ee 3e f3 98 56 3e f8 08 58 3c 72 e4 aa 3c
       0.46487746 0.20956783 0.013185732 0.020860884
000010 cd 47 03 bd f7 c2 d8 bd 22 30 dd 3c 62 49 8a 3d
       -0.032050896 -0.105840616 0.02700049 0.06752278
000020 0c 1d 58 3e 78 01 c1 bd 7d 4b 74 3c 41 f6 a9 3e
       0.2110483 -0.09424108 0.014910576 0.3319569
000030 0d fc 84 3d c9 9d 9e be d2 75 18 3d 8d 17 d2 3d
       0.06493387 -0.30979756 0.037221737 0.10258398
000040 9a fe 84 be d8 95 04 bd e0 bd 35 3e c7 2a 6c bf
       -0.25975496 -0.032369465 0.17748213 -0.92252773
000050 d2 74 9b 3e a7 36 17 3b c3 d0 7d 3e d4 e4 a5 3d
       0.30362564 0.0023073347 0.24786668 0.08100286
000060 03 d7 ad 3d ab 25 2e 3e 01 51 d9 bd 34 47 ae 3e
       0.08488276 0.17006557 -0.106111534 0.340387
000070 be db 78 bd a7 21 b2 be 9f 0d 23 3f 9d d4 60 be
       -0.060756437 -0.347913 0.6369266 -0.21956106
000080 ed 63 c6 be ec 95 4c 3e ca 25 1f be cc a5 6b bc
       -0.38748112 0.19979066 -0.15541759 -0.014382791
000090 fd d0 0b be 52 0d 86 be 1e d2 0b 3e c6 fe 0b 3e
       -0.13653941 -0.26182038 0.13654372 0.13671407
0000a0 a4 f5 42 3e 62 18 08 3d bb 6c e3 ba a1 98 18 bf
       0.19039017 0.03322638 -0.001735113 -0.59607893
0000b0 09 2d 37 3e 02 c0 e7 3e 74 13 b7 bd 33 a1 35 3e
       0.17888273 0.45263678 -0.08939257 0.17737274
0000c0 3b 79 2b bd 9f 2f da 3d db eb a5 bd a9 fd df 3d
       -0.04186366 0.10653614 -0.081016265 0.10937054
0000d0 30 18 ef be 0e 9e 3a 3d df 54 cb 3d 04 53 e1 3d
       -0.4669814 0.04556089 0.09928297 0.11002162
0000e0 c8 b8 a3 be 1c 1d 7b 3e 0a cf 7c be ec 55 32 3e
       -0.31976914 0.24522823 -0.24688354 0.17415589
0000f0 3f a6 1e bf 61 bc 3e bd 1a ab 1e 3e c1 d0 7e 3e
       -0.6197242 -0.04656637 0.15494958 0.24884321
000100 66 d0 5f 3e b0 7e 75 bd 3b 4b 0b 3e 8c 9e 1f be
       0.21856841 -0.05993527 0.13602917 -0.15587825
000110 16 90 50 3d 5c 82 4b 3e 00 67 61 3d a8 dd 47 be
       0.05091866 0.19873947 0.05502987 -0.19518149
000120 4c 0e 87 bd c5 c0 0c be e8 46 f8 3d d2 8c 31 3c
       -0.06594524 -0.1374541 0.12122899 0.010836797
000130 7b 12 4c be d1 0a 71 be 91 85 27 be 21 9a 89 3d
       -0.19928925 -0.23539282 -0.16359545 0.06718851
000140 58 8f 05 be f0 e0 5a be a0 4e c6 bd 48 cd 15 be
       -0.13042963 -0.2137487 -0.09682965 -0.1462909
000150 19 bf c9 3b 90 6f cb bd 23 51 3e bd e3 57 04 bd
       0.006156814 -0.09933388 -0.046464097 -0.032310378
000160 51 fa 4b be 22 b3 bc bc 11 c2 2a 3e 06 1b 06 3e
       -0.19919707 -0.023034636 0.16675593 0.13096246
000170 0c c8 24 be 90 40 63 bd d1 29 43 be 5c 2a 4b be
       -0.16091937 -0.055481493 -0.1905892 -0.19840378
000180 d0 c7 68 3e a6 2c 8e 3a db 7b fb bd c9 dc 91 3e
       0.22732472 0.0010847047 -0.12279483 0.28488758
000190 ee 5b df bd d3 3f a0 3e bd 85 ea 3d 07 60 34 3d
       -0.10906206 0.31298694 0.1145129 0.04403689
0001a0 54 4f 14 bd 75 4f 07 be 08 41 97 3e ce b1 56 be
       -0.036208466 -0.13213904 0.29541802 -0.20966265
0001b0 9f 39 6f be 52 9d 39 be c0 0c 93 bd 6c 94 14 bd
       -0.23361824 -0.18126419 -0.07180166 -0.03627436
0001c0 66 e2 46 be 77 35 ed be 55 69 f0 3d 89 0d 00 3e
       -0.19422302 -0.46329853 0.117388405 0.12505163
0001d0 d9 4e 07 3d 08 5d bf 3d b9 2a 60 3e 7f 79 4e 3e
       0.03303418 0.09343916 0.21891297 0.20163535
0001e0 e8 62 f7 3c da 68 ce bd 93 3c 3b bd 39 6e 36 3e
       0.03019853 -0.100785926 -0.045712065 0.17815484
0001f0 c8 79 a4 be 72 a8 6c 3e 43 74 3b 3e 74 d4 2a 3e
       -0.32124162 0.23111132 0.18306069 0.16682607
000200 a5 83 15 be 30 78 0a 3e ec 58 5b bd b8 89 2f bf
       -0.14601 0.1352241 -0.0535516 -0.6856952
000210 69 ba d7 bd 44 0f a6 bd 58 17 a2 3c db 3f 2e 3e
       -0.10533602 -0.081083804 0.019786522 0.17016546
000220 ec 39 23 3e 4d 57 d7 3d bf bc a3 3e 38 e3 78 be
       0.15940064 0.10514698 0.3197994 -0.24305427
000230 1e 0d 81 be 40 ec 22 bc 5c d9 ac bd 31 da 73 be
       -0.2520532 -0.009944022 -0.084398955 -0.23813702
000240 f7 0c 09 3e 65 05 88 3e 9c c0 ab be b7 d7 ca be
       0.13383852 0.26566616 -0.33545387 -0.39617702
000250 64 08 41 3e 77 b7 ea be 2c b3 ff 3d 2e e3 49 bd
       0.18850857 -0.45843098 0.12485346 -0.04928892
000260 95 34 05 bf 88 c1 84 be 63 ac a5 be 31 3c 93 bd
       -0.5203336 -0.25928903 -0.32358083 -0.07189215
000270 fd 12 ab 3e cc 2f 2c be 0c 81 56 be eb 62 b8 be
       0.33412924 -0.16815108 -0.20947665 -0.36012968
000280 65 e9 a3 bf f3 d5 13 3d ee 31 09 be 97 5d d7 bd
       -1.2805601 0.03609271 -0.13397953 -0.10515898
000290 d6 89 38 3e 5d c1 ec 3d 58 39 cc be 9a a9 3a 3e
       0.1802133 0.115603186 -0.398875 0.1822876
0002a0 72 e2 dd bc 09 4c a7 3d 5e 4b 7e be 16 98 0b bf
       -0.027085517 0.081687994 -0.24833438 -0.5452894
0002b0 c1 bf 7f 3d bb ec 08 be f2 5f 0f 3e a6 ff 6b be
       0.06243873 -0.13371556 0.14001444 -0.23046741
0002c0 d8 5b 17 3e 41 08 bf be 4b df 60 3d b0 96 80 3c
       0.1478113 -0.37310985 0.05490045 0.015696853
0002d0 69 99 51 bf 14 f4 20 be 95 11 cb 3e e5 2a 8a be
       -0.8187471 -0.15718108 0.39661852 -0.2698585
0002e0 c7 b6 66 be 30 a1 66 be 65 e4 44 3e 77 57 5a bc
       -0.22530662 -0.22522426 0.1922775 -0.013326517
0002f0 47 2b a2 3e c0 73 8a bd 9d 9d 88 3d 9a e2 f2 be
       0.31673643 -0.06760359 0.06670687 -0.47438508
000300 e1 17 0a 3e 26 60 3e be 7d 0a af 3d c1 08 a2 bd
       0.13485672 -0.18591365 0.08546922 -0.07911826
000310 c0 57 32 3e d5 ac 7d bd fb 4f 6b 3e 5d 7d a9 3d
       0.17416286 -0.061932404 0.22979729 0.08275864
000320 1f 23 a5 3e 17 f2 f2 3d 29 66 31 3e 62 18 40 be
       0.32253358 0.11862581 0.17324127 -0.18759301
000330 1c 94 c5 3d 1c e2 df 3e 9c 20 0a be 78 62 9e 3d
       0.0964739 0.43727195 -0.13489002 0.07733625
000340 1a a6 8d 3e 4e b7 47 bc ff 17 4d 3e 66 83 27 be
       0.27665788 -0.012189699 0.20028685 -0.16358718
000350 c6 8e 0e be 1c 53 c5 bc 69 13 a4 be fd c5 af bc
       -0.13921651 -0.024087481 -0.3204606 -0.021456713
000360 e6 50 24 3e a6 a1 1e bf 96 9f 97 bd 0d 67 d2 3e
       0.16046485 -0.61965406 -0.074034855 0.41094247
000370 50 3b a5 be 77 e3 e3 bd 2e 22 37 3e f1 36 b4 3e
       -0.32271814 -0.1112737 0.17884132 0.35198167
000380 e0 ab 83 3e 6e 5b 4d be 99 eb 22 3f ed c3 7c be
       0.25717068 -0.20054409 0.63640743 -0.24684115
000390 b2 2f 53 3e 4c 5d e1 be cf 20 2d be 3d 3b 14 be
       0.20623663 -0.44016492 -0.16907047 -0.14475723
0003a0 55 d2 1d 3f d0 98 22 3e a6 4e 80 be ca dd 0c bd
       0.61649066 0.15878606 -0.25060004 -0.034391202
0003b0 d5 45 26 be 13 2e eb bd fb 21 7e 3c 9e 96 86 3e
       -0.16237576 -0.11483397 0.015511031 0.26286787
0003c0 66 2d 4e be 1c 65 64 bc dd 3c 41 bf be 23 b8 3d
       -0.20134506 -0.013940122 -0.75483495 0.08991192
0003d0 ee fe ee 3e 3f 6c 6b be f9 0e e7 3d 00 1c fe 3e
       0.4667887 -0.22990511 0.11282153 0.49630737
0003e0 7f 58 c3 be 43 0e 4f bf 0a 3b c5 be c1 82 c9 3e
       -0.38153455 -0.80881137 -0.38521606 0.3935757
0003f0 cd 3c f7 be f7 6d 82 3e da 67 d7 3e 08 e1 dd 3d
       -0.48288575 0.25474522 0.4207142 0.10833937

sequential/dense_1/MatMul f4 [5, 64]
000000 bc 03 12 bf 64 e1 86 be 77 70 df 3c ee 45 73 3d
       -0.5703695 -0.26343834 0.027275307 0.059392862
000010 28 32 64 3f e7 18 ec 3e 77 c1 b6 be 6f 6b 91 bf
       0.8913903 0.4611275 -0.35694477 -1.1360911
000020 93 54 85 be a4 f6 b5 3e ff ff 08 c0 52 d0 0a be
       -0.26041088 0.35539734 -2.1406248 -0.1355603
000030 5e df 22 be d5 69 8c bf 63 76 4f 3e 21 13 ca bf
       -0.1590552 -1.0969797 0.20260005 -1.5787088
000040 c2 ae 4b be 0b 1e 2c 3e c4 0d 99 bd c4 6c 16 bd
       -0.19890884 0.16808335 -0.07473329 -0.03672482
000050 a0 3d 84 bf 11 47 a9 be cd 06 ce 3d f8 95 3b bf
       -1.0331306 -0.33062032 0.10059891 -0.7327571
000060 75 d3 b6 3e 85 83 ac 3e b5 8a 9b 3e f0 fa 27 3e
       0.35708204 0.3369409 0.30379263 0.16404319
000070 95 0a a3 bf 81 b4 48 3e 1c b0 d5 bf d5 75 13 bf
       -1.2737604 0.19600107 -1.6694369 -0.5760167
000080 02 c6 e2 3e ae 54 82 3e 2b 92 24 bf 46 7a 40 3f
       0.44291693 0.2545523 -0.64285535 0.75186574
000090 1a 33 36 bd 28 e0 9f be 6c 67 9e 3e e1 cc 3e 3e
       -0.044482328 -0.31225705 0.3093828 0.18632843
0000a0 4e a8 94 be c6 7e 4e bd 25 aa 06 3f 15 d3 90 be
       -0.29034656 -0.05041387 0.5260337 -0.28286043
0000b0 42 68 94 3d f2 b2 52 3f 90 e9 db 3c d4 bd 96 3e
       0.07246448 0.823043 0.02684477 0.29441702
0000c0 d7 b5 d5 bd da 56 74 3e d3 f8 b0 3e 44 3a 08 bf
       -0.10435074 0.23861256 0.34564838 -0.53213906
0000d0 b3 c8 e8 be 13 ef ab bd 34 80 aa be 5d 38 40 be
       -0.4546562 -0.08395209 -0.33300936 -0.18771501
0000e0 00 7c 20 3e 13 17 16 3f 69 9f 3a bd 89 24 0a 3f
       0.15672302 0.5862896 -0.04556218 0.53962
0000f0 40 38 83 3e fe 93 02 bf f9 11 8e 3e e9 d7 8f 3e
       0.25628853 -0.5100707 0.27748087 0.28094414
000100 c0 ed c1 3e f8 ce aa be 55 d3 26 bd fe 22 aa 3e
       0.378767 -0.3336103 -0.040728886 0.33229822
000110 2e 6c f5 3e 6f 62 74 3e 30 54 52 be fb ae 7e be
       0.47934097 0.23865674 -0.20539927 -0.24871437
000120 9e 6a f1 bd b4 d7 c9 be cf f5 87 3e 58 1c c5 3e
       -0.11787914 -0.3942238 0.26554725 0.38498187
000130 2c da da bd 90 f4 b2 3e 49 fc 5e bd d5 ba ab 3e
       -0.10686144 0.3495221 -0.054439817 0.3354098
000140 9f 1d ce 3d c1 69 2d be c4 2e 9c be 8e ac 81 be
       0.100642435 -0.16934873 -0.3050443 -0.2532696
000150 7e 9b 26 3e a0 51 76 3e 30 f3 97 bc 05 d3 a1 be
       0.16270253 0.24054575 -0.018548578 -0.31606308
000160 be 67 11 bd 7b 49 01 bf 17 72 e4 be 95 2c ca 3d
       -0.035499327 -0.5050275 -0.44618294 0.098717846
000170 ff 71 ac 3e 74 de 6e 3e 39 86 97 3e a1 0b 5f bd
       0.33680722 0.23327047 0.2959459 -0.05445445
000180 fc 97 98 3d 7f df 3d be 47 83 a9 3e 96 0f e2 bd
       0.07450864 -0.18542288 0.3310797 -0.11038129
000190 1f 9b 97 be 8b ae ad 3e 02 5f bd be d3 78 e4 be
       -0.29610536 0.33922228 -0.36986548 -0.44623432
0001a0 f6 a6 e1 bd fd 4b 11 bd d6 36 6c bb 68 29 d2 be
       -0.110181734 -0.03547286 -0.0036043427 -0.41047215
0001b0 cf 67 c3 bf 9b 37 b0 bf e7 3a 2d bf 12 49 39 3e
       -1.5266055 -1.376697 -0.67668 0.1809428
0001c0 49 42 e1 bd 14 d5 50 3e a9 06 1a bc 50 15 ab 3e
       -0.10998971 0.20393783 -0.009401002 0.33414698
0001d0 1e 1f e8 bc 7b 5e 6b 3c 45 ac 40 bf 15 0b df bd
       -0.02833515 0.014365788 -0.7526286 -0.108907856
0001e0 d4 b5 dc be eb 5c b8 be f8 56 85 bd bd e1 d2 3e
       -0.43107474 -0.3600839 -0.065107286 0.4118785
0001f0 24 1a 6a 3e 82 c3 64 3e 25 85 01 3c 96 9a e5 3e
       0.22861534 0.22340205 0.007905279 0.44844502
000200 23 b6 41 be 05 8a 3c bc 51 a4 48 3c 8e 51 9b 3e
       -0.18917136 -0.011507516 0.012246207 0.3033566
000210 da b7 78 bd 80 ef fb 3e c1 89 b9 3e f3 cf 1c 3e
       -0.06072221 0.49206161 0.3623791 0.15313701
000220 fc 05 0b 3e 5b 3f 12 3e f3 80 a8 bf 1c a6 52 be
       0.13576502 0.1428198 -1.3164352 -0.20571178
000230 a4 4b 12 3e bc d5 d2 3e df 00 4a 3e be 2b 21 3f
       0.14286667 0.4117869 0.19726895 0.6295737
000240 8a 9e 8a 3e 6d 0f a4 3e ec 60 33 3e ed 62 e6 be
       0.2707408 0.3204302 0.17517442 -0.4499735
000250 4f 6b 82 3d c3 fb 1e be 10 55 03 3e 47 da cc 3e
       0.06368124 -0.15525727 0.12825418 0.40010282
000260 c2 3a fc bc ee 80 dc be c6 16 ff bf cb 2e 03 3e
       -0.030789737 -0.43067116 -1.9928825 0.12810819
000270 1b 9a 44 bf ea 8f cb 3e 4d 9c 96 3e bb 0d 4f bf
       -0.76797646 0.39758235 0.29416123 -0.80880326
000280 96 50 ad bf cf c2 fd be 30 9b 4d be 04 5a 27 bf
       -1.3540218 -0.4956269 -0.2007873 -0.6537173
000290 81 9d 36 bf c6 c1 ae be bc da 6e 3d 1f cd d4 3e
       -0.7133408 -0.34132212 0.05831407 0.41562745
0002a0 72 0b 81 3d 7a 6b f0 3e f7 42 83 be b5 39 fe 3e
       0.06301011 0.46956998 -0.25637028 0.49653402
0002b0 aa f3 6b 3f 29 86 f5 3c bf 9d 6b 3f 1e 36 54 bb
       0.92168677 0.0299712 0.92037576 -0.003238089
0002c0 da 74 05 3f 8d 32 9a bf 37 ab 2e be bd 59 9f bf
       0.52131426 -1.2046677 -0.17057501 -1.2449261
0002d0 49 09 48 be fb 18 3e bd 21 cc a8 3e 75 19 04 3e
       -0.19534792 -0.046410542 0.32968238 0.12900336
0002e0 f5 71 0d 3f f6 52 00 be e9 a9 9d be 22 f3 87 be
       0.5525201 -0.12531647 -0.30793694 -0.26552683
0002f0 4a 65 5e be eb 71 39 be d7 6a 09 be a7 d7 ec 3e
       -0.21718326 -0.18109863 -0.13419662 0.4625828
000300 1f 55 c3 bc a3 69 c3 3e 28 a4 2f be 28 f4 9e be
       -0.0238443 0.38166532 -0.17152464 -0.3104565
000310 2c 58 78 be bc 26 8b bd e0 28 23 3e f9 4a 17 3d
       -0.24252385 -0.06794497 0.15933561 0.036936734
000320 b8 fd 8e 3e 82 2c 04 3e 80 23 8b 3f 94 93 92 3d
       0.27927947 0.12907603 1.0870209 0.071570545
000330 10 41 20 3d 4b 1f 93 3d 46 79 68 3c ae cd 03 3c
       0.03912455 0.07183703 0.01418907 0.008044643
000340 5a 3e 10 3e 55 03 8f be cf 8e 14 be f4 c2 a0 3e
       0.14086285 -0.2793223 -0.14507602 0.31398737
000350 9d 9a cb be 4c c3 51 3e 4d 3f b4 be f6 1f f5 3b
       -0.39766398 0.20484656 -0.35204545 0.0074806167
000360 e5 5c 6d 3e 49 6a 8d 3e 45 e3 15 3f e1 a5 90 be
       0.23179968 0.27620152 0.5854991 -0.28251556
000370 29 24 19 3f 77 f0 bd be 8c 5b b9 3e a7 cb d5 3e
       0.598208 -0.37097523 0.36202657 0.41756937
000380 15 4b ac 3d 4e ae f9 3e 00 67 c3 be 6c 08 d8 be
       0.08412758 0.48765796 -0.3816452 -0.42193925
000390 e2 75 03 3f 06 87 9e 3d bd 90 82 3e 04 c6 22 bf
       0.5135175 0.077405974 0.25501052 -0.635834
0003a0 e6 a7 fe 3c 37 81 bd be 5b 24 aa 3e 8f 68 b8 bb
       0.03108592 -0.37012646 0.33230862 -0.0056276987
0003b0 e0 71 db 3e 07 8d 45 be af ea 55 bf bb 19 8d 3e
       0.42860317 -0.19292079 -0.83561224 0.27558693
0003c0 40 ce 71 bf 72 f0 cb be 62 76 d6 be 5f c4 79 3d
       -0.9445534 -0.39831883 -0.41887194 0.06097829
0003d0 0b 1e 6d 3b 55 04 64 3e c0 4c 2f 3e f9 d1 45 3e
       0.0036181237 0.22267278 0.17119122 0.1931838
0003e0 ad 00 db 3d 9f 29 e3 3e c4 07 98 be 14 a6 19 be
       0.10693488 0.44367692 -0.29693425 -0.1500476
0003f0 a8 c3 94 3e 8f d7 56 bd f5 3f 1b bc f8 1e 8f be
       0.29055524 -0.052451666 -0.009475698 -0.27953315
